src/checkpoints/lstm.pth (torch, 704411 bytes, 40 tensors)

weight_ih_l0 f4 [160, 11]
00000000: ce03 203e 26d0 b93d ef98 85bd d851 adbd
00000010: c43d 04be afe8 fbbd e293 183d 4033 d93b
00000020: 0e6c eebd 1d78 76bd 1a46 76bd 3565 25be
00000030: 6119 9b3d a43d 8ebd 86c1 fabb d2da 26bd
00000040: 3740 b7bb af28 10be 665b 9abd f746 b13d
00000050: 078b 80bd 429f 093d 23f1 12be ce67 13be
00000060: 4b78 0dbe 2478 0cbe df5b 1cbd 75e4 093e
00000070: ce3b c9bd a2fc e83d e7c5 0c3e d6d0 023e
00000080: 1148 9dbc 1b7b e2bd e37c a5bd a707 9b3d
00000090: d2df 8abd 1d55 853d e4e6 163d 5791 a8bd
000000a0: 31f0 15be ee18 d43d 0dc6 79bd 4f66 0c3d
000000b0: 0796 813d 0689 a63d b762 033e d36f 0dbe
000000c0: 1286 1b3e 948f 843d 6994 9a3c 21f1 d9bd
000000d0: 7b71 e33d 0401 3abd d12b c33b 6f19 29be
000000e0: ac39 183e b91a b8bd 80f6 213e bd41 be3d
000000f0: 041d d2bd ecbe 603d 7290 b0b9 544f 17bb
00000100: 08a2 babd 8a0c a4bd 6a81 e2bc cce7 263d
00000110: a082 23be 8ad9 65bd 6964 5d3d 875d 91bd
00000120: 41b6 86bd 2ce9 54bc 6f54 833d 90ef 1a3e
00000130: 5297 c7bd 4aa7 98bd 7ba9 083e 777b ac3d
00000140: 9fed f9bd b95e 063e 7f5c 993d e23f bcbd
00000150: c4cf 03bd be7d 233d 94c3 f2bd 6621 f3bd
00000160: d6c3 bdbc 5f4c 1ebe 1010 f5bc 6628 febd
00000170: 818f 4b3d e2d4 ea3c b9f1 abbd 4c2b 90bd
00000180: 391f b93c 9c4b 0f3e 9115 be3d 5441 e63d
00000190: f67d be3d 6cf2 c23d b2c1 b93c e314 6e3d
000001a0: ac3d 10be a846 9fbc c5bb a63d ec29 8cbd
000001b0: 2073 3bbd 1d99 56bd 529b 8b3d 6ff2 c1bd
000001c0: 694a 1c3e da1c db3d 4255 113e d1af aa3d
000001d0: bdd6 97bd 52fc 103d ceec 0dbe e811 8fbd
000001e0: 54d7 efbd c726 1b3e 99e1 c73d 3f8f 8cbb
000001f0: 6907 593d 6d96 f23d 20fe 03be 0ae8 14be
00000200: 7cad 1dbe 5116 6fbd 2c89 76bd f1c4 953d
00000210: ffcb 31bd ced6 17bc f3d0 63bd f0f9 ac3d
00000220: c5f6 323d f9c4 83bd 10e4 38bd bafb d63d
00000230: 1886 b7bd b77b f33d fa3f 073d 67d5 e73c
00000240: cc09 efbc d5c4 94bd 7923 cb3d 6b9f 11be
00000250: 9d43 2abe 0989 6d3c cc85 a9bd 4ea0 bb3d
00000260: 9a41 6f3d 0baa 12be b886 fabc 8c9a ecbd
00000270: 2e38 69bd 0eea 013e a53f 29be 0876 eb3d
00000280: cd43 a83d 6007 b5bd 2e8e bd3d b851 b03d
00000290: c0d7 fa3d 0f3e 75bd 0930 0fbe e8d8 a63d
000002a0: 7fb5 0c3e f654 24be ce6b 523c b257 8c3d
000002b0: 047c b53d dd00 56bd b2b2 75bb 5f53 8cbd
000002c0: 19b3 243e 9b03 febd 63ed da3d a538 a43d
000002d0: d36e 843d 94d5 013e 7cea 5e3c beaa 993b
000002e0: 3ec7 10bd 16fa 103e c760 fb3d cb14 9a3d
000002f0: f286 39bd 6e7e 9fba 8049 d43d 3cc9 b3bc
00000300: f978 f2bc 7c90 afbd 28a5 50bd d117 d73d
00000310: fc8f b13d 73b2 a8bb 9423 ab3d bd9f 0b3e
00000320: 3ac8 ba3d 046b c63d f09d d3bd 29cd 14be
00000330: bce8 b7bd 1173 83bc b53c bebd 951b 223d
00000340: 3931 d03d c34d d43c faaf 59bd e46d 1d3c
00000350: 1b74 d93d 7342 503d 97c1 ae3d 3742 683d
00000360: 86ab bd3d 6899 093e 350f 233e b642 233e
00000370: 05bb ddbc 8b6c 5ebc 7dc2 4d3d 9a9b bf3d
00000380: a340 0fbe 3e00 1abe 1c27 e8bd 3f43 6a3d
00000390: 0dd3 0b3e 6556 ccbd 6414 af3c cf6f 3f3d
000003a0: 7804 10be 30d1 96bc ff81 1cbe 4726 57bc
000003b0: 323b f1bd 6ec0 033c f180 b6bd 8eab 15bd
000003c0: 2dbc 1bbe 1819 0a3c d7ff bdbc 847a d4bc
000003d0: 4cc5 f8bd fd6c aabd 7cc5 40bb c902 ec3d
000003e0: 6bdb e8bd 77ce ca3d b521 d5bd a109 ae3d
000003f0: cc49 49bb bfe8 593c c218 fe3d e2b8 143e
0.15626451 0.09072904 -0.065233104 -0.08462876 -0.12914187 -0.1230024 0.037250407 0.006628424
-0.116417035 -0.060173143 -0.060125448 -0.16151889 0.075732 -0.06945351 -0.0076524643 -0.040736027
-0.005592372 -0.1407802 -0.07536964 0.086561136 -0.06276517 0.033599146 -0.14349799 -0.14395067
-0.1381542 -0.13717705 -0.038173553 0.13466056 -0.0982586 0.11376311 0.13747369 0.12774977
-0.019199403 -0.11058637 -0.08080461 0.07569819 -0.067809716 0.06510375 0.03684129 -0.082308464
-0.14642407 0.103563175 -0.06097989 0.034277257 0.063274436 0.08131604 0.12830625 -0.13812189
0.15187863 0.06472698 0.018869596 -0.10641695 0.11105629 -0.045411125 0.005956151 -0.16513608
0.1486575 -0.08989472 0.15816689 0.09289882 -0.102594405 0.054869577 -0.00033676956 -0.0023088055
-0.09112936 -0.08010204 -0.0276496 0.040748402 -0.15967798 -0.056115665 0.054050837 -0.07097917
-0.06577731 -0.012995046 0.06412589 0.15130448 -0.09745659 -0.07453783 0.13345902 0.084219866
-0.12203526 0.13122071 0.07488345 -0.09191872 -0.032180563 0.03991484 -0.1185371 -0.118716046
-0.02316467 -0.15458821 -0.029914886 -0.12410049 0.049697403 0.028665964 -0.08395714 -0.07039508
0.022597896 0.13993686 0.09281457 0.11242929 0.09301369 0.095188946 0.022675369 0.058125388
-0.14086026 -0.019442871 0.08141283 -0.068439335 -0.04576409 -0.052392114 0.068167344 -0.09470069
0.1526276 0.106988624 0.1419268 0.083343156 -0.07414005 0.03539688 -0.13859865 -0.06985837
-0.117109925 0.15151511 0.09759826 -0.004289537 0.052985583 0.11845098 -0.1288991 -0.14541641
-0.1539821 -0.058370892 -0.06018941 0.07312954 -0.043407436 -0.009267522 -0.05561919 0.08446109
0.04369237 -0.06434054 -0.045139372 0.10497232 -0.08961123 0.11888831 0.033019997 0.0283
-0.029179476 -0.07264105 0.09918875 -0.1422097 -0.16627355 0.014498004 -0.08277473 0.09161435
0.058412172 -0.14322679 -0.030581817 -0.11552915 -0.056938343 0.12686941 -0.16528185 0.11497122
0.08216057 -0.08839297 0.09255634 0.086093366 0.12248182 -0.059873637 -0.13983168 0.0814684
0.1374111 -0.16048035 0.012843085 0.06852664 0.08861545 -0.052246917 -0.0037490544 -0.06851839
0.16083945 -0.124030314 0.10689809 0.080186166 0.064664505 0.1267913 0.01360571 0.0046895435
-0.035346262 0.141579 0.12274318 0.07523497 -0.04529471 -0.0012168416 0.103655815 -0.021946542
-0.0295987 -0.0857248 -0.050938755 0.105025895 0.08670041 -0.005148226 0.08356395 0.13635154
0.091202214 0.0968838 -0.103328586 -0.14531387 -0.089799374 -0.016046079 -0.09288923 0.039577086
0.101656385 0.025915986 -0.05314634 0.0096087195 0.106178485 0.05084462 0.08533018 0.056703772
0.09261231 0.13437426 0.1592377 0.15943417 -0.027066717 -0.013575683 0.050234307 0.093558505
-0.139895 -0.15039155 -0.113355845 0.057193037 0.13654728 -0.09977416 0.021372028 0.04673749
-0.14064205 -0.018410295 -0.15283965 -0.013131685 -0.11778869 0.008041484 -0.08911312 -0.03654056
-0.15208502 0.008428834 -0.023193283 -0.025937326 -0.121470064 -0.08321569 -0.0029414585 0.11523969
-0.11369976 0.09902661 -0.1040682 0.0849793 -0.0030714152 0.01330012 0.12407066 0.14523652

weight_hh_l0 f4 [160, 40]
00000000: 6e4c 5dbd f57e 7e3d 7997 0a3e 0253 9abd
00000010: 55aa 71bc 8471 11be 3a03 8ebd 74e2 8a3d
00000020: c25f 0fbe ede8 8c3d b2ba aebd d1bf 073e
00000030: 0252 823c 278f 10be d1ad 15be e71e ea3d
00000040: 6705 c73d f8ae 34bd ee92 abbd 9695 9d3d
00000050: 106d dabd 7584 1f3e 5cdf 8c3d 62f7 23be
00000060: 9bae f83c b367 fe3d 66de 0e3d 0099 5bbd
00000070: 129c a2bd a8d5 0abd 93be 05be 7047 96bd
00000080: 287b 763d 0fe2 a5bd e895 cb3d c89a 89bc
00000090: cbac c5bd c1b6 8b3d 870f 4c3d e232 323d
000000a0: de52 b5bd c25f a7bd cc32 283d ccac b03d
000000b0: c9ae 553d c8d4 57bd 9743 943c 4d59 74bc
000000c0: ad21 24be 0a92 113e 7050 c53d 0ca9 c8bd
000000d0: 338c 10be 30bf c2bd af34 cb3c e63e 5fbc
000000e0: 08cb 3cbd 4030 10be b622 3ebd cd2c ac3d
000000f0: 85a6 bbbc ef91 11be 320a 03be d63d 32bd
00000100: c551 083e 1ff4 143c d9c0 ddbd 85d8 0c3e
00000110: d6be 023e 6544 c8bd 952b 0ebe fbb4 8a3d
00000120: a19d 823c 9cdc 18be 3d0d a43d 84d0 d83c
00000130: eb12 0f3d 8952 a53d 0255 693d b39e 12bd
00000140: be0e 43bc 3e06 0fbd 332e 8c3d 565c 123e
00000150: 0575 afbc 9443 2739 a35b d8bb 206b 053e
00000160: 31b0 333c b0d0 aabb 6c89 f13c 6ded 193e
00000170: be8c b83d ced5 a9bd d383 46bc fa49 f43d
00000180: fc15 a03d bad6 8e3d eac4 68bc b562 143e
00000190: 1480 023e 0221 cfbc 30ad 013e 546f 05be
000001a0: ab67 523d ea08 5abd 34d6 733d 26ab 03be
000001b0: 0e26 c4bd fd03 163e a1e4 cb3c f3b6 14be
000001c0: 2d9f 19be f373 48bd 6807 0cbd 0ba3 9a3d
000001d0: 7599 433d 8ed4 123e aef3 cbbd f2af 7f3d
000001e0: 64e7 973b 2a24 60bd 6b00 a33d a2c4 e6bd
000001f0: 635e 7b3d 695e 2e3c 9842 fc3d 0aa6 013e
00000200: b547 d73d f0ef b13d b29d 10be f387 01be
00000210: 4331 3c3b 928a ba3c f340 eabd 8607 88bc
00000220: 9f67 b5bd 7158 17be dfbd 96bd f14c 103e
00000230: a3b4 03be 0117 e23d 2f67 ecbd 4ee6 c1bd
00000240: b978 ac3d 164e c1bd 525c 18bd fea9 c33d
00000250: aec9 16be 468a 183e 2876 be3d f381 2cbc
00000260: 4899 0d3e 6070 0c3e a7d3 4b3c 4e2c c9bd
00000270: b197 d2bd d906 023e bf1f 1b3d 4396 24be
00000280: bf26 983c 4025 163e 631f bebb 7a7c ab39
00000290: 0789 593d 8cdb c5bd 82f0 e3bc 0c4d ef3d
000002a0: 54c7 8dbd 5e29 a4bc 42de 883d 6f15 01be
000002b0: 214e b9bb d813 4ebc 495f d13d c924 0e3d
000002c0: ec9e 29bd 79d8 91bd 632f 9239 eba0 0ebe
000002d0: 1d24 c4bc 043d 08bd f5f8 383d 83f3 e6bd
000002e0: d970 ccbd cd3b 753c 3ef5 063e 73c8 d43d
000002f0: 8fa5 b3bd 2788 edbd ca54 033e 281d 11be
00000300: 4f7d e4bd 5999 523c 4f6a 02be 6313 08be
00000310: fbae a7bd e604 bdbd fd3b bcbd a57d 843d
00000320: 3930 213c 0cf8 fe3c d9a4 093e e16e 173e
00000330: 8a83 013d 252b 0e3e dca0 2abe ab6a d4bd
00000340: 4850 a7bd 333e c53c 6ba5 39bb 76b4 e7bc
00000350: e56a 6abd 08a3 c73d 0433 c53d 012f 8abc
00000360: 85ab 413c 9f26 82bb ccbd 69bd 4b4b febd
00000370: 42a7 2b3e cdcd 813d f55c 033e a5a8 c9bd
00000380: 36c6 a73d de72 19be 72fc 0abe d71c d5bd
00000390: b89f 91bd 3f48 9cbd 758f 8dbd 5ecf af3d
000003a0: 4ac5 d73c 7985 e0bc 62ff 343d e2cc 3d3d
000003b0: 544a 3a3d 78d6 ea3c f951 8abd 411b ac3c
000003c0: 1606 2c3d fd83 dfbc 82d6 f6bc c623 0cbe
000003d0: 83e3 213d 0011 7b3d 0cc7 92bc 95e5 02bd
000003e0: 6fa6 94ba a5ae 7c3d 53d0 653d de48 84bd
000003f0: 4152 05be e447 d33d bf06 52bd f868 0d3e
-0.054027967 0.062132794 0.13534345 -0.07535364 -0.014750083 -0.14203459 -0.06934209 0.06781474
-0.14001372 0.068803646 -0.08531703 0.13256766 0.015908245 -0.14117108 -0.14617087 0.114316754
0.09717827 -0.044112176 -0.08377634 0.07694547 -0.10665333 0.15577872 0.0687854 -0.16012338
0.030356696 0.12422123 0.034880064 -0.05361271 -0.07939924 -0.033895165 -0.1306098 -0.07337844
0.060176045 -0.08099758 0.09940702 -0.016797438 -0.09652098 0.06821967 0.049819496 0.043505557
-0.08853696 -0.08172561 0.04106407 0.086267084 0.05216864 -0.05269316 0.018098636 -0.014913869
-0.16028471 0.14215866 0.09634483 -0.09797868 -0.14115982 -0.09509122 0.024805395 -0.013625836
-0.046092063 -0.14080906 -0.04641982 0.084069826 -0.022906551 -0.14215825 -0.12796858 -0.043516003
0.13312443 0.009091406 -0.108277984 0.1375447 0.1276811 -0.0977867 -0.13883813 0.067728005
0.015944304 -0.14927906 0.080103375 0.026466615 0.03493015 0.08072383 0.056965835 -0.03579588
-0.01190537 -0.034918062 0.06844749 0.14293036 -0.021418104 0.00015951536 -0.006602721 0.13029146
0.0109673 -0.005212866 0.029484473 0.15031977 0.090112194 -0.08292733 -0.01211639 0.119281724
0.07816693 0.069745496 -0.014207104 0.14490779 0.1274417 -0.025284294 0.12663722 -0.1303075
0.051368397 -0.053231157 0.059530452 -0.12858257 -0.09577571 0.14649959 0.024889292 -0.14522915
-0.15002127 -0.048938703 -0.03418675 0.07550629 0.04775377 0.14338896 -0.099585876 0.062423654
0.004635738 -0.05472199 0.07959064 -0.112679735 0.06136931 0.010642626 0.12317389 0.12660995
0.10511724 0.086883426 -0.14122656 -0.12649517 0.0028715886 0.022771154 -0.11438169 -0.01660515
-0.08857655 -0.14779831 -0.07360434 0.14091851 -0.12861876 0.11039544 -0.11543118 -0.09467755
0.084214635 -0.09438722 -0.03719742 0.09553908 -0.14725372 0.14896497 0.0929988 -0.010529029
0.13828003 0.13714743 0.012440599 -0.098229036 -0.10282839 0.12697925 0.037872072 -0.16072945
0.018573163 0.14662647 -0.0058020814 0.00032708404 0.053109195 -0.09661016 -0.027824644 0.116846174
-0.069227844 -0.020039257 0.06683017 -0.12605833 -0.0056550656 -0.012577973 0.10223252 0.03470305
-0.041411325 -0.07121367 0.00027882596 -0.13928573 -0.023943001 -0.033261314 0.0451593 -0.11276915
-0.099824615 0.014967871 0.1317949 0.10389795 -0.08771812 -0.115982346 0.12825313 -0.14171278
-0.11156713 0.012853944 -0.12735866 -0.13288645 -0.08187672 -0.0922945 -0.09191129 0.06469277
0.009838157 0.031124137 0.1344179 0.1478839 0.031619586 0.13883646 -0.16662925 -0.10371908
-0.08169609 0.02407751 -0.0028327357 -0.028284293 -0.05723085 0.097478926 0.09628871 -0.016868116
0.011820679 -0.003971889 -0.05706577 -0.12416705 0.16763023 0.063380815 0.12828429 -0.098466195
0.081921026 -0.14985225 -0.13572863 -0.104058914 -0.07110542 -0.07630967 -0.06912128 0.08584474
0.026339192 -0.027407395 0.044188865 0.04633797 0.04548104 0.02866672 -0.06753916 0.02100909
0.04199799 -0.027284617 -0.030131582 -0.13685521 0.039523613 0.06129551 -0.017917179 -0.031957228
-0.0011341105 0.06168999 0.056106877 -0.06459211 -0.13019659 0.103164464 -0.051275965 0.13809574

bias_ih_l0 f4 [160]
00000000: 5af9 ce3d f490 383d 01c8 1f3e 98d2 16be
00000010: f8d7 9dbc 796c dbbc 5651 11be a37b 0c3e
00000020: 8236 0d3e 16cf f53d 3ba4 d73d fc85 0c3e
00000030: ccb4 6bbb 6bb5 88bd 27bd 283c 461b 873d
00000040: c5b1 8dbd 8d3a b1bd 74d5 f4bd 370b 303d
00000050: b4e4 7cbd b5aa df3d 1f18 26bc c606 9dbd
00000060: 2daa c1bd 4596 0cbd 3ddb 643d 0059 ea3b
00000070: 1499 d0bd 4d68 273e fcc4 aa3d f719 02be
00000080: e9f2 0cbe 7b7a 943d 784b 75bd f9db 44bd
00000090: d5a1 f23d f506 3abd 7aa7 02bc 3799 763d
000000a0: 7788 f8bd b10f 0c3d 8861 f23d 31f9 903d
000000b0: fd0a 56bd a25b e33c 490f 10be e373 91bb
000000c0: 2628 e0bd e2fd b43d 8abc 283d 1ef9 cf3d
000000d0: 34f0 16be 41b0 e7bd 47a0 c6bd eab8 0dbe
000000e0: 9fac db3c cb9a 213d 4f70 b43d 0cef ec3d
000000f0: ede3 67bd f2b5 cabd 18ca 98bc d9b2 ad3d
00000100: 998a b0bd c7c6 193e f335 f8bc f87e 80bd
00000110: 82d5 f73d 0231 d3bc 2e83 a23d 29a6 80bd
00000120: dbee e9bc 07b0 bcbd 2d4f 6dbd 9d80 95bd
00000130: ecb8 dfbd 384d f73d baa8 dabd 704e 203d
00000140: 3d6b 123c e8f4 d53d 998d ed3b 2596 a6bd
00000150: c224 783d a116 cebd e020 db3c be6b 48bc
00000160: 43ff 2cbe 0392 f93c 79c8 c03d 488b 4f3d
00000170: f6cc 8cbd 8943 163e 73ae 89bd 090a 1ebe
00000180: 4adf 0d3e 4aaa 9dbb 033c 0bbe b702 853c
00000190: ce24 0dbd 8e16 1abe 4c26 003d 78ee ae3d
000001a0: d79f 9c3d 7d4f cebd c51e ad3d 739f 0cbe
000001b0: 67dd 1c3e 0ce2 e23c 88b6 c93b 7832 5d3d
000001c0: 08ce c6bd e0ee 82bc f084 a33b 5de7 e9bb
000001d0: 0567 07be d168 693d a689 683d db30 05be
000001e0: 43ec 2d3c 8dd3 393d 9f1c 0b3e be0c dbbd
000001f0: cda4 b2bd fa0b a73d 4819 213e ad59 1bbe
00000200: 1772 07bd c212 30be 328a c2bd a9ea e0bb
00000210: 54ce e2bd 1bde e0bc 571d 33bd b40e 13be
00000220: 83c3 fc3d d54f 693d 70d2 88bc 1396 863d
00000230: 8625 17be 4c2e 113e 5625 fb3d cf0d 5d3d
00000240: 6c34 d33d 4a11 8e3d 0182 edbd 69c1 163e
00000250: 59f3 d03c df9b 5d3d 0437 cf3d f079 01be
00000260: 4710 37bd fe9c a6bd c597 13bc 2dcb 083e
00000270: 4ede 9a3d f47d 093e c63e 9cbd 217a 4e3d
0.10106154 0.045060113 0.15603639 -0.14728773 -0.019268021 -0.026785122 -0.14191183 0.13719039
0.13790324 0.12002389 0.10529371 0.13722986 -0.0035965918 -0.06675228 0.010299004 0.06596999
-0.069186725 -0.08653746 -0.119547755 0.042979445 -0.061741546 0.10921232 -0.010137587 -0.076673076
-0.094562866 -0.034322996 0.055873144 0.007151723 -0.10185447 0.16348381 0.08338353 -0.12705217
-0.13764538 0.07249924 -0.059886426 -0.048061345 0.11847273 -0.04541679 -0.0079745 0.06020471
-0.121354036 0.034194652 0.11835009 0.070787795 -0.052256573 0.027753655 -0.14068331 -0.0044388636
-0.10945158 0.08837487 0.04119543 0.10154937 -0.14740068 -0.11312915 -0.09698539 -0.1384007
0.02681571 0.039454263 0.08810484 0.11569032 -0.05661385 -0.098979846 -0.018651053 0.08481378
-0.086201854 0.15017234 -0.030299162 -0.06274217 0.1210127 -0.025780205 0.07935177 -0.062816925
-0.028556278 -0.09213262 -0.057936836 -0.07299922 -0.10923943 0.12075275 -0.10676713 0.039137304
0.0089367 0.10447103 0.007249546 -0.081341065 0.06058193 -0.1006291 0.026749074 -0.012232719
-0.1689425 0.030465132 0.09413237 0.05066994 -0.06875031 0.146742 -0.06722727 -0.15433516
0.1385471 -0.00481156 -0.13597111 0.016236646 -0.034458928 -0.15047666 0.031286523 0.08541578
0.076476745 -0.10073755 0.084531344 -0.137327 0.15318833 0.027695678 0.0061557926 0.05400321
-0.09707266 -0.015983045 0.0049902126 -0.0071381764 -0.13222893 0.056984726 0.056771897 -0.13006918
0.010615411 0.045367766 0.13585137 -0.1069579 -0.087228395 0.08156581 0.157323 -0.15170927
-0.03306779 -0.17194656 -0.09499015 -0.006863911 -0.1107451 -0.027449658 -0.043729153 -0.14361078
0.123419784 0.0569609 -0.016701907 0.06571593 -0.14760408 0.14177817 0.12262981 0.053968247
0.10312733 0.069368914 -0.11597062 0.14722218 0.025506662 0.05410373 0.10117915 -0.12644172
-0.044693258 -0.08135413 -0.009008353 0.13358755 0.075619325 0.13426954 -0.076291606 0.05040944

bias_hh_l0 f4 [160]
00000000: 5d8d 29bd 50bc 213e 9968 04be 4cfd 1abe
00000010: df9d c7bd b55d ffbd e3b9 9bbd debb 283d
00000020: 9b2f 98bd 4f93 ccbd 48b3 03be 9b54 f63d
00000030: 03e7 823c 01de e3bb 09e4 ae3d 11d2 efbd
00000040: 5463 7d3d dc58 e8bd 5ec2 cabd a816 be3d
00000050: 6bb3 39bc 5330 c6bd cfed dfbd daf2 ddbd
00000060: 91da 13be 46c1 eabd b136 6bbd 2f0e af3d
00000070: cf18 af3c 290c f43c e3ab 0fbe 92ce 153e
00000080: ed5f ffbd 5e4e f63d 1fcf 35bd dd49 42bb
00000090: 7a56 a2bd e5c7 e8bd e3f7 05be 5668 63bd
000000a0: 2b33 c3bd 961c 12bd 48e4 4abd f91c 15bd
000000b0: 9098 593d b515 913d 1365 06bd 3777 1e3e
000000c0: a29e c63d ee07 07be 58b5 16bd 444b ecbc
000000d0: c3d4 cabc 40e9 48bb 5e14 d7bb e63d 033e
000000e0: cec1 2a3e 08ea 04be 0648 cdbd ab60 a8bd
000000f0: 38aa 043e d05b f13d 01c7 c8bd 5c49 af3d
00000100: 0974 eebd 05a2 9fbc 697b 073e ae73 0a3d
00000110: b079 f33c 4510 95bd 1464 10be c788 b3bd
00000120: e607 be3d 16de 8e3d 2ce0 86bd f418 24be
00000130: 1ca8 c73c ccd2 533d 249b 28bd c6ea a7bd
00000140: c9b8 473d ccf8 05be fdc3 033e 3348 3fbd
00000150: 7a37 08bd 6078 6b3d f633 063e 2efe ba3d
00000160: d130 28bd b47b ebbd 8489 e83c 6e3f 233d
00000170: 5ee2 a23d 7c24 1d3e 9036 e5bd 7d1d cd3d
00000180: 2252 e5bd 5201 8dbb 5692 f13d 4968 f1bd
00000190: 6b91 90bd 07c0 25be fda0 2bbc 4599 e7bc
000001a0: 5b1a 05be 250a e8bd ddb9 413d 1de7 693d
000001b0: ac09 d43d d350 95bd 7491 1fbd 62b3 e1bd
000001c0: 8c5a 3d3b ce63 2b3e ede5 20bd 8d5e de3d
000001d0: 2218 913d 1d9f edbb db83 c23d 367b 09be
000001e0: 46a8 723c e3f7 59bc fb51 35bc a580 0e3d
000001f0: a6dc 083e 05d6 79bd fd36 433d 7a6f 54bc
00000200: 66e5 eebc 283d b9bd 24ce 0f3e 8039 963d
00000210: a1be 5ebd a74d fb3c bec1 b3bb 7248 0a3e
00000220: 4ab0 d13c 05d8 333d 91d7 06be 4ec3 cfbc
00000230: c425 853c ffb4 42bd 483d ed3d d231 d4bd
00000240: c834 18be a421 63bd 9efd 5fbb 1bb8 5cbd
00000250: 40de a7bd 6550 303e c979 ecbd 3422 153e
00000260: ce96 83bd 30c9 e53d 666b 07be 9c21 43bc
00000270: 9a87 27be 41a7 fbbd b135 a23d 3480 10be
-0.04139458 0.15794492 -0.12930526 -0.15135688 -0.097469084 -0.12469045 -0.076038145 0.04119479
-0.07430955 -0.099890344 -0.12861359 0.12027856 0.015979296 -0.006953955 0.08539588 -0.11709989
0.061862305 -0.113450736 -0.09900354 0.09281665 -0.0113342805 -0.09677186 -0.1093403 -0.10837336
-0.14438845 -0.11462645 -0.057425205 0.08547627 0.021374134 0.029790955 -0.14030413 0.14629582
-0.12469468 0.12026666 -0.04438698 -0.0029646077 -0.0792665 -0.11366252 -0.13082843 -0.055519424
-0.09531244 -0.035671793 -0.049534112 -0.036404584 0.05312401 0.070842184 -0.032811236 0.15475164
0.096982256 -0.13186619 -0.036794037 -0.028844483 -0.024759656 -0.0030656606 -0.0065637073 0.12816581
0.16675493 -0.12979901 -0.10023503 -0.08221563 0.12955558 0.1178509 -0.09803582 0.08558914
-0.11643226 -0.019486437 0.13230671 0.033801727 0.029721111 -0.07278494 -0.14100677 -0.087663226
0.0927885 0.06975953 -0.06585726 -0.16025144 0.024372153 0.051714703 -0.04116358 -0.08199076
0.04876021 -0.1308319 0.12867732 -0.046699714 -0.03325603 0.057487845 0.13105759 0.09130512
-0.04106218 -0.11498204 0.028385885 0.039855413 0.07953332 0.15345949 -0.111920476 0.1001539
-0.11197306 -0.004303136 0.117954895 -0.11787469 -0.07058986 -0.16186534 -0.010475394 -0.028271327
-0.12998335 -0.1133006 0.047296394 0.057105172 0.10353407 -0.072908066 -0.038957074 -0.11020543
0.0028893081 0.16737291 -0.039281774 0.10857878 0.07084681 -0.007251634 0.09497806 -0.13425907
0.014810627 -0.01330373 -0.011066909 0.034790654 0.1336542 -0.06099512 0.047659863 -0.012966031
-0.02916212 -0.09044868 0.1404348 0.07335186 -0.054381017 0.030676676 -0.0054857424 0.13504198
0.025596756 0.043907184 -0.1316817 -0.025361683 0.01625336 -0.047535893 0.11583954 -0.10361065
-0.14863884 -0.055452004 -0.0034178267 -0.053886514 -0.08196688 0.17218168 -0.11546666 0.14563829
-0.06425248 0.11220014 -0.13224563 -0.011909869 -0.16360322 -0.122877605 0.07920397 -0.14111406

weight_ih_l0_reverse f4 [160, 11]
00000000: 2b63 3f3d f84d 953d 9690 f2bd 55d9 c7bd
00000010: fa20 cabb 38d6 9dbd 07db cd3d 0315 3f3d
00000020: 61d0 59bd 44bb 153e e872 a83c be3a 213d
00000030: 00dd a7ba 99d6 cabd f2d1 e3bd 4df4 703d
00000040: e124 35bd 0739 04be 554a da3d 0795 b7bc
00000050: 1532 1a3e 6595 ff3d 92fb c33d 90ca 783d
00000060: 074a f43d 61d4 b7bd a9d4 49bd e872 b83d
00000070: 365a f03d 0a8c cabd 676a 0b3d d746 c1bd
00000080: aff5 023e fe9d 5fbd 6a80 543d 4c8f 9bbd
00000090: d8ac 2e3d 0216 353a db87 1b3c ca8c ccbd
000000a0: 6a78 1ebe 4cc3 953d 620f b83a 2231 633d
000000b0: 8ec5 b8bd 4d99 d3bd 97ac b23d c6ff 153e
000000c0: 2438 f7bd 9ad4 093e d550 21be 737a e53d
000000d0: bcf1 6d3c 546f 02be b591 02be e751 fe3d
000000e0: 2723 fe3d 1f1b d7bc 1996 b53c c57b 2cbc
000000f0: be0a 263e 481f 21be cd9b 2dbc 879a 02be
00000100: 62b8 5c3d cb88 0dbe c023 d53d 2221 853d
00000110: c4bf b3bb 29b3 edbd d5fc 57bc 2296 50bd
00000120: bc38 c23d 2d5f b1bd b90d e73d 2b04 f3bd
00000130: 49e8 ce3d cf8b bebd 8a30 91bc eb92 493d
00000140: 1125 9d3d cc1f 043e bbe9 05be 18d4 c2bd
00000150: bbc8 07bd a891 5f3d 87b4 47bd 73fd 6dbd
00000160: 7f42 06be 4f2d 2abd 3f77 d0bd 154d 84bd
00000170: 1b5b 96bc 6921 1ebe e1bc be3d fa60 c13d
00000180: 4225 683d 1336 e53d b96a 483d 1681 b93d
00000190: 671b 26bd c2d4 e2bd 7a24 8abd e0b0 a73c
000001a0: 7f4a 103e d802 c23d 5539 8bbd 8cfe 6f3d
000001b0: 188e fa3d 6f1c 423d c7bc 2e3e c37b e13d
000001c0: d398 0e3e 9264 c3bd c404 de3c 334a d0bd
000001d0: bae1 2abc 1b04 e2bd ffd2 ef3c 3808 eebc
000001e0: afea a03c 0a03 1abe 22af cdbb acfd a73d
000001f0: 528b 0abd 5aa3 c63c 98ea 9a3c 1303 1dbe
00000200: 2890 b33c 1936 e9bc 6421 7dbd 6ac3 f93d
00000210: 5926 69bb 8398 77bd 259e 9cbd 9091 b63c
00000220: f84a 6b3d a213 b1bd 0bd2 5a3d cb3b 21bd
00000230: f4bf de3d 4a4f 403c 5654 a43d 401a a43d
00000240: 52e8 e4bd 823c 153e 2929 bd3d cff0 f5bd
00000250: 6260 0c3e a90e 61bd c2af 463d 0982 8cbd
00000260: 94f0 863d 0be2 e5bd 9709 4abd 62e8 fe3d
00000270: b34f ae3a 6aab 2fbd 5cb5 623d 7912 0cbc
00000280: 0452 3fbd 1661 10be e767 023e 819a 57bc
00000290: a335 053d 5fa4 233d b440 5ebc 2608 0cbe
000002a0: ec5d 993d 0763 0f3e cdb7 3cbd be89 173e
000002b0: 5cef 3e3d 5a7c 0c3d 7cdf 053e 5e88 dbbd
000002c0: 0f06 323d 11a4 003e 5ccb fbbd d26c 343d
000002d0: 2dfe e53d eb4c 0bbe 2ed4 08bd d36a bdbc
000002e0: d409 02be da56 e33d c36e 123d 00ab 033e
000002f0: aca0 a73d 8b18 11be 4610 b73d 99c0 dfbc
00000300: 3f15 de3d 4044 953d 522e fc3d 2912 71bd
00000310: 3173 cfbb eb54 98bd 381d fa3d 998d 72bd
00000320: b586 8cbc a37b 9cbd 1771 023e ca66 043c
00000330: 2e8b e13d 91b2 52bd 94c9 4bbd 3aa0 9f3d
00000340: 5fa0 003e 1a7b 9f3d 90a2 bfbb 519a 8abd
00000350: d7aa febb 64d2 a23d e9f2 24bb 8ac3 ddbb
00000360: f658 283d 9240 fbbd fe8a 79bd 378c 13bd
00000370: 1339 03bb 3c41 b53d b6e7 0cbe 846a 17be
00000380: 9b33 adbc e557 8a3c a5cb 71bd aeb8 85bd
00000390: ccfb b23d 11fb d6bc c1f1 163e b543 ca3b
000003a0: fa89 bcbd d9d6 e13d d569 54bd eadc 04be
000003b0: b804 0d3d 6891 a13d af4f ebbb add3 b5bd
000003c0: 1797 fdbd d44a 92bd 87f6 073e 1077 aa3d
000003d0: 6eb1 073e 4726 ef3c 8916 23bd 8833 ee3d
000003e0: 88e7 e33d 8347 4abd f281 30be e309 fa3d
000003f0: eb1f fb3d e5b8 99bd 30c6 1cbe ce96 dbbd
0.046725433 0.07290262 -0.11843984 -0.0975825 -0.006168482 -0.077068746 0.10051542 0.046650898
-0.05317724 0.14622217 0.020562604 0.03936266 -0.0012806952 -0.099042125 -0.11124028 0.058826733
-0.044224624 -0.12912379 0.10658709 -0.022409929 0.15058167 0.124796666 0.095694676 0.060740054
0.11928182 -0.08976055 -0.049275074 0.09006292 0.11735956 -0.098899916 0.03403702 -0.0943734
0.12789033 -0.054594032 0.051880278 -0.07595691 0.042645305 0.00069078815 0.00949284 -0.09987791
-0.15475622 0.073126405 0.001404267 0.05546678 -0.090220556 -0.10331974 0.08724325 0.14648351
-0.12071255 0.13460007 -0.15753491 0.11204996 0.014522966 -0.12737781 -0.12750895 0.124179654
0.124090485 -0.02625805 0.022166299 -0.010527556 0.16215035 -0.15734589 -0.010596228 -0.1275426
0.05388678 -0.13821714 0.104072094 0.0650046 -0.0054855067 -0.11606438 -0.013182838 -0.050924428
0.094834775 -0.086607315 0.11281914 -0.11866029 0.10102899 -0.0930401 -0.01772334 0.049212378
0.076730855 0.12902755 -0.13077442 -0.0951311 -0.033150416 0.054582268 -0.04875615 -0.058103036
-0.13111304 -0.041547116 -0.101789944 -0.06460015 -0.01835399 -0.15442432 0.093133695 0.09442325
0.056676157 0.111919545 0.048929904 0.09057824 -0.040553477 -0.110757366 -0.067452386 0.020470083
0.14090918 0.09473199 -0.067980446 0.058592364 0.122341335 0.047390398 0.170642 0.11009934
0.13925485 -0.09540667 0.027101882 -0.101704024 -0.010429794 -0.11035939 0.029275415 -0.029056653
0.019643156 -0.15040222 -0.006276981 0.08202681 -0.033824272 0.024247814 0.018910691 -0.15333204
0.021919325 -0.028468179 -0.061799422 0.121954754 -0.0035575835 -0.06044818 -0.07647351 0.022286206
0.057444543 -0.08646323 0.05342297 -0.039363664 0.10876456 0.011737654 0.08023898 0.08012819
-0.11177124 0.14573863 0.09236366 -0.12008821 0.13708642 -0.05494562 0.04850746 -0.0686074
0.065888554 -0.11224755 -0.04932555 0.12446667 0.0013298899 -0.042888083 0.05534874 -0.008549326
-0.046709076 -0.14099535 0.12734948 -0.013159395 0.032521855 0.03995168 -0.013565231 -0.13674983
0.07488617 0.1400262 -0.046073724 0.14798638 0.04661499 0.03429828 0.13073534 -0.10719369
0.04346281 0.12562586 -0.12294647 0.04404909 0.11230121 -0.1360356 -0.033405475 -0.023122227
-0.12699062 0.1110055 0.03575016 0.128582 0.081849426 -0.14169519 0.08938651 -0.027313517
0.10843896 0.07288408 0.123135224 -0.05885521 -0.0063308706 -0.07438072 0.12212604 -0.05921707
-0.017154077 -0.07640769 0.12738453 0.008081147 0.110128745 -0.051439825 -0.049752787 0.07794233
0.12561177 0.07787152 -0.0058482364 -0.06767715 -0.0077718305 0.07950285 -0.00251692 -0.006767695
0.041100465 -0.12268175 -0.06092357 -0.03602239 -0.0020023033 0.08850333 -0.13760266 -0.14786726
-0.021142771 0.016887615 -0.0590321 -0.065293655 0.08739433 -0.026242765 0.1474066 0.006172622
-0.092060044 0.11027307 -0.05185874 -0.12974897 0.03442833 0.07889062 -0.00718113 -0.088782646
-0.12382334 -0.071431786 0.13277636 0.083234906 0.13251278 0.029193057 -0.039816413 0.116309226
0.111281455 -0.049384605 -0.1723707 0.12208917 0.12261947 -0.07505969 -0.15309978 -0.10722123

weight_hh_l0_reverse f4 [160, 40]
00000000: 832a a3bd a647 e73a 4ad2 3ebc 33c2 04be
00000010: 414a 40bc 594f 73bd d402 b43d 2319 183e
00000020: 5119 a43d 6e82 963d 4c0c 053d cf4b a83d
00000030: 41a1 f2bd cdd5 253d fbe4 b5bc c12a 923c
00000040: 5a2f b83c deae e7bd 4f30 b9bd 6374 5ebd
00000050: 8dce 523d 38e9 07be 56a0 413d 93af 24be
00000060: caa8 c73d 9910 ffbd ac2a 0dbe ad8e e6bd
00000070: 0e11 09be 5bf8 db3d 2bed 1a3c 41c3 833c
00000080: 380f debd 673b 99bd c504 dcbb af81 413b
00000090: 2212 a93b eeb8 eabc a97a a43d bf16 18be
000000a0: f803 bcbd bea3 073d eada eabd c122 ce3d
000000b0: c80a 79bc 0cd3 8bbd 56c5 bc3c 9136 af3d
000000c0: 62be 8ebd edb0 d1bc 6af7 003e 6702 adbc
000000d0: 61a3 613b 3a78 f83c 9201 edbd 29bd afbd
000000e0: 75d2 81bc 25b5 673c df84 b5bd 88bf 143c
000000f0: c432 bb3d cc40 a0bd 5045 c53d 4722 453d
00000100: ca12 1a3d 2627 793d 52e2 d3bd 3da6 1d3d
00000110: b0d7 5b3c dd72 0bbe 5a01 233d 1a03 013d
00000120: ebb6 a63c 8d02 2bbe 9145 17bd 2c47 84bb
00000130: de44 24bd 61e0 113e d64c e13d 8456 dcbd
00000140: 133c 993d 7b0c 093d 5aee 4ebb 2394 0a3e
00000150: 40ac 05be 900a 353d 184c 1a3d ca1e 06bd
00000160: 8371 983d 69fc c73d 3fee 0d3d 9042 89bd
00000170: 5dda 04bd 68b1 4f3d 0ad4 bdba 49eb 1bbe
00000180: e3bc 8fbb d7f3 0d3e db24 50bc e3e0 aa3d
00000190: e6f7 953d 6b26 b03c 677a 193e 898f 7ebd
000001a0: 4630 1e3d a5ca 30bc 27f3 bebc b365 06be
000001b0: 6790 50bc 62a3 0d3e 507d a0bd a4a7 1fbe
000001c0: de7b 243c 7ed6 e2bd 21ea 59bd 5855 a03d
000001d0: d0ba 13be 5429 e5bd 949c 40bc e70c 03be
000001e0: 021c b83b 86ef 183e 3ec0 9a3d 8802 b83d
000001f0: 7554 0dbe d81d ea3d 887c 193e c4e4 223e
00000200: 842f 243e f69f c43c e518 da3c edb4 063e
00000210: bf8e a43d 58c2 fb3d 0e30 cfbd 8f1f c23d
00000220: 7313 0abe c04e a8bd ad8f 20be 7c6f 053e
00000230: a3f3 13be 60ed 32bd d58e 953d eecb 99bd
00000240: b61f c53d 6024 933d 6a94 b33b b97c bcbd
00000250: 522e a5bc 70c2 06be c987 e93d aa4d d13d
00000260: fcce 113e d7a6 ce3d a473 003e 7da7 ff3b
00000270: 7d81 3bbd ba83 57bd eadc b7bc 9c7b 4a3d
00000280: d98d 1fbe aaa2 233e 5075 c3bd 5916 493d
00000290: 3bc7 f6bd 48ff d5bd f84f 17be 8223 9b3d
000002a0: 9615 e9bd a244 8b3c 2232 dc3c 22ba 863d
000002b0: c817 03be 0b23 853d 9880 793d d748 fbbd
000002c0: f188 cdbd 578f 253c 0425 f63d 07d4 8b3d
000002d0: 9a63 ed3d 7e72 ba3d a007 bf3c 5e4a cdbd
000002e0: 4f19 ca3d dcf3 14be f8cd b5bc 9ba6 36bd
000002f0: 935b 0bbe 73cc 863c 9b6b 71bd de36 943d
00000300: 9b6e 07be ccb9 153e 8ae9 463d 7dbc db3d
00000310: 33a8 79bd d21e b43d 4d6f d43d 7255 f83c
00000320: efa6 48bd 7ac9 bc3d f319 243d 80d2 ab3d
00000330: 413b d43d 6b8a a73d 7984 3ebd 1220 51bd
00000340: 2bf6 ae3d 4fe1 abbd 338f 7bbd b4f6 c53d
00000350: c5a1 59bd 284e 953d e81f 833d f413 66bc
00000360: 10ff f13d 475f f4bd c414 023d b9da 1dbd
00000370: 6fb8 323d c1e2 683d e8e2 473d 068f 593d
00000380: 69b3 05bc 084b 1f3d d27d 043e aa0f ccbd
00000390: e9ed e0bd a7c4 ba3d 7d62 84bc 2aef 193e
000003a0: f258 f73d 25f5 963d e82e 263e 2f90 a03d
000003b0: 171d c63a b4c5 133d 5317 60bc edca 63bd
000003c0: 812b 03be b3f9 2d3c 1947 633c 4cd9 a43a
000003d0: 655b 57bd 2eb1 afbd 220b 693d 3363 e53d
000003e0: cad7 29bd 2862 c4bd 3659 f7bd c466 acba
000003f0: 2bd1 9c3d e8e9 0bbe 18e4 0abd 2ea5 05be
-0.07967093 0.0017645254 -0.0116468165 -0.12964706 -0.0117364535 -0.059401844 0.08789602 0.14853339
0.08012641 0.07349096 0.03248243 0.08217584 -0.11847163 0.0404871 -0.022203913 0.017842652
0.022483516 -0.1131265 -0.09042417 -0.054310214 0.051466513 -0.1327256 0.04727205 -0.16082601
0.09748991 -0.124543376 -0.1378581 -0.11257682 -0.13385412 0.107407294 0.009455959 0.016084315
-0.108427465 -0.07482033 -0.0067144358 0.002952676 0.0051596323 -0.028652634 0.08031208 -0.14852427
-0.091804445 0.03311514 -0.11467536 0.100652225 -0.015200324 -0.06827363 0.023043316 0.085553296
-0.069699064 -0.02559706 0.12594381 -0.02111931 0.0034429657 0.030330766 -0.11572565 -0.08581001
-0.015847424 0.014142309 -0.08863234 0.009078868 0.09140542 -0.07824859 0.09632361 0.048128393
0.037615575 0.06082835 -0.103459015 0.038488615 0.013418123 -0.13618036 0.03979621 0.0314971
0.020350894 -0.16700192 -0.036931578 -0.0040368047 -0.04010474 0.1424575 0.110009834 -0.10758689
0.074821614 0.033459168 -0.0031575174 0.13533072 -0.1305399 0.044199526 0.037670225 -0.032744206
0.07443526 0.0976494 0.034651037 -0.06702149 -0.03243481 0.050706297 -0.0014482748 -0.15226473
-0.0043865307 0.13862549 -0.0127040995 0.08343675 0.073226735 0.021502694 0.14988099 -0.062148605
0.038620256 -0.010790502 -0.023309303 -0.13124733 -0.012729741 0.13831857 -0.078364015 -0.15591294
0.010039298 -0.110760674 -0.0532018 0.07828778 -0.14426732 -0.11189523 -0.011756081 -0.1279789
0.005618573 0.14935121 0.075561985 0.08984858 -0.13801749 0.114314735 0.14988911 0.1590758
0.16033751 0.024002057 0.026623199 0.13154955 0.08035039 0.122929275 -0.101165876 0.094786756
-0.13483982 -0.08218145 -0.15679808 0.13030809 -0.14448409 -0.04368341 0.07302634 -0.075095996
0.09625189 0.07184672 0.005480339 -0.092034765 -0.020163689 -0.1316011 0.11402852 0.10219891
0.14239115 0.10090416 0.12544113 0.0078019486 -0.045777787 -0.05261586 -0.022444207 0.04943429
-0.15581454 0.1598002 -0.0954386 0.049093578 -0.12049719 -0.10449082 -0.147766 0.07575132
-0.1138107 0.0170005 0.026879374 0.06578471 -0.1280204 0.065008245 0.060913652 -0.122697525
-0.10035885 0.010104976 0.12018779 0.068275504 0.11591263 0.09103869 0.023319066 -0.1002395
0.098681085 -0.1454615 -0.02219294 -0.04459248 -0.13609152 0.01645491 -0.05894051 0.072370276
-0.13225786 0.14621657 0.048562564 0.10729311 -0.060951423 0.08794941 0.103727914 0.030314181
-0.048987325 0.09218116 0.04006381 0.08389759 0.10362864 0.08180698 -0.046513055 -0.051055975
0.085430466 -0.083925836 -0.061415862 0.096661955 -0.05313279 0.07290298 0.0640257 -0.014042843
0.118162274 -0.11932235 0.031758085 -0.03853867 0.04363292 0.056856874 0.04880038 0.053114913
-0.0081604505 0.038889915 0.12938622 -0.09963925 -0.10982878 0.0911954 -0.016160244 0.1503264
0.12077512 0.07370976 0.16228831 0.07840001 0.0015114871 0.036077216 -0.013677436 -0.055613447
-0.12809564 0.010618615 0.0138719315 0.0012576967 -0.052577395 -0.08578716 0.056895383 0.112005614
-0.041465558 -0.09589034 -0.120775625 -0.0013153185 0.07657083 -0.13663447 -0.033908933 -0.13051292

bias_ih_l0_reverse f4 [160]
00000000: 8170 0c3e e8d9 e53d d494 dbbc 3f7f 72bd
00000010: 27d3 a83d 21d4 1d3e 1116 afbd aaf4 dbbd
00000020: 2cf2 fa3d 0b56 59bd a0a6 e8bc 0dcd 1abe
00000030: 6436 68bc d7fd a1bc 50c7 0d3e c8fb d43d
00000040: b641 11be ce8e 173e 6bc6 1d3e 5dde 093e
00000050: 8efa 24be 5ad7 0e3e 751e 8abd e292 753d
00000060: 7614 0c3e 112b 18be fc3e babd 111b e73d
00000070: c610 81bd 7ba9 ed3d e7fe 723d a6ee b63d
00000080: f235 13be a73a bcbc eb53 c63d 8e73 89bd
00000090: 3c40 e6bd 0e58 1bbe 533c 183e 8151 d93d
000000a0: db60 c23b cafc 043d df73 9fbc 2fb4 bbbd
000000b0: d72b 153e bbce 11be fcf8 f73d d05e 263e
000000c0: c7f0 dabd 57f2 e8bd a60c 003e 3a6a c9bc
000000d0: 461d b4b9 8097 e3bd 2429 913d 6623 123e
000000e0: aaad b43d 7691 253e 805c ed3a ae4f 8bbd
000000f0: aa88 003e e586 aebc 0d6a 0d3d 7b0d c0bd
00000100: ded4 21be f7f6 fbbd dbbd 8cbd 989e 40bd
00000110: fb93 0a3e 3301 eb3d b161 793d d6ca be3d
00000120: 15f1 18be 8ee3 403d cd0c 503d 7851 1d3d
00000130: 07ba c3bd 4e23 983d be59 babc 1e96 1abc
00000140: 44e1 c9bd 1e90 fdbd bb3c a6bd c138 c43b
00000150: 41d8 ecbd 552e 11bd 924b b0bd 4dfd bf3d
00000160: f22b ea3b ac75 223e eb85 58bd b8ab 473d
00000170: aa08 933d 44b5 56bd 010c b73d f03d c439
00000180: ee89 b6bd 7c8c a1bd 19b1 573d a637 fa3d
00000190: c4ea 07be ef7f c93c cb7b 11be 92c3 ddbd
000001a0: 6654 a73d d422 31bd f5ae 0ebe 6329 ba3d
000001b0: ef86 c13d 60a9 02bc 76a5 b53d f7ac dabd
000001c0: 57d8 14be c687 1e3e aedb 88bc eefd 80bd
000001d0: 2e41 19bd e609 37bc 06eb 003e 7cac 683d
000001e0: 3ba9 54bd 3428 8b3d 9bd3 23bd 263f 9e3d
000001f0: e668 c6bd 703f 183e f8e2 903d 9a5e 113e
00000200: 99df 9a3c e205 dfbd f19a 603d a98e ddbd
00000210: 4653 c5bc 3d24 f83d aec3 0b3d ecb5 1f3b
00000220: f291 cbbd 87fe 6c3d edb6 ea3d ee67 363e
00000230: 462e eb3c b32c a13d d247 bcbd 76ea 363e
00000240: 7e60 7d3d 8084 e33c b3e8 e7bc 6f1b c0bd
00000250: a6dc 893d f059 1d3d abbb 9fbc 6fff d23b
00000260: e17c 0dbe e708 b43d 5201 163d eb54 bc3d
00000270: 220c 26be 7feb 7dbc a759 8bbd d6d5 f53c
0.13714792 0.11223203 -0.026804365 -0.059203383 0.08243399 0.15412952 -0.08549131 -0.10740025
0.12253222 -0.053060573 -0.028399765 -0.15117283 -0.014173124 -0.01977436 0.13845563 0.10399586
-0.14185223 0.1480057 0.15407722 0.13463731 -0.16111204 0.13949338 -0.067440905 0.05995453
0.1367968 -0.14860179 -0.090940446 0.112844594 -0.063020274 0.116045915 0.059325125 0.08932237
-0.14376047 -0.022977186 0.09683975 -0.067114934 -0.112427205 -0.15170309 0.14866762 0.10611249
0.005931956 0.03246764 -0.019464431 -0.09165227 0.14567505 -0.14239018 0.12108037 0.16247106
-0.10690456 -0.11374348 0.12504825 -0.024586786 -0.00034354086 -0.11112881 0.07087925 0.14271316
0.08822186 0.1616877 0.0018109232 -0.06802307 0.12552133 -0.021304557 0.034524966 -0.09377571
-0.15803859 -0.12302964 -0.068721496 -0.047026247 0.13533013 0.11474838 0.06088418 0.09316032
-0.14935715 0.047092013 0.050793458 0.038407773 -0.09556966 0.07428609 -0.02274787 -0.009435205
-0.09857419 -0.12381004 -0.08117052 0.005988211 -0.11564685 -0.035444576 -0.08608164 0.09374485
0.007146352 0.15865201 -0.05286209 0.048747748 0.07179387 -0.052418962 0.089378364 0.0003743018
-0.08913027 -0.078881234 0.052659128 0.12217645 -0.1327315 0.024597136 -0.1420738 -0.10828318
0.081703946 -0.043246105 -0.13933928 0.09089925 0.09449565 -0.007974952 0.0886945 -0.10677522
-0.14535652 0.15481481 -0.016706314 -0.06298433 -0.037415676 -0.011171794 0.12589654 0.05680512
-0.051919203 0.067947775 -0.039996725 0.07726888 -0.096879765 0.1486795 0.07074541 0.14196244
0.018905448 -0.10889794 0.054835264 -0.10818226 -0.02408756 0.12116287 0.03412216 0.0024369908
-0.09939946 0.057859924 0.114606716 0.17813084 0.028708588 0.07869854 -0.09193386 0.17862877
0.0618596 0.027773142 -0.028309202 -0.093802325 0.067315385 0.03841585 -0.019498667 0.0064391415
-0.13817169 0.087907605 0.036622353 0.09195884 -0.16215566 -0.015498041 -0.06804209 0.030009191

bias_hh_l0_reverse f4 [160]
00000000: 726b f63d 9d34 0d3e 3de1 f5bd 4cf2 ea3d
00000010: 26bb b1bd fdad 1f3e bbee 6cbd 0b9f 1b3e
00000020: 82d4 dc3d 844e 073e 212c 82bc b01f c53d
00000030: 2428 0dbe 2a8b 0f3c 4a4a bbbc d2d3 9ebc
00000040: 9122 e83a de9d 443d 0130 073e a83e b0bd
00000050: bce9 66bd 8e6b 063e b500 5cbc 7c84 a63c
00000060: 057a 63bd c0a1 c9bd b517 8ebb 2b17 98bd
00000070: e015 5bbc ad52 ffbd 807a 3cbc 0e0b 133e
00000080: 0be3 ea3d 0301 82bc 07b4 203e 978d 213e
00000090: 5d85 9d3c e45b c0bd fc08 b8bd 2f09 67bd
000000a0: 6648 543c 67d4 9dbd 5f45 8dbd edb3 243d
000000b0: 80e3 273e f320 043e 2163 713c beea c3bd
000000c0: 2313 8bbd 869e fe3d 7216 603d cc82 74bd
000000d0: fad3 043e 1b3c 0dbe 4a9f a53c cc41 f13d
000000e0: 0485 a03d 2c01 dc3d 601f ce3d e2a4 57bd
000000f0: 60ec 55bd b286 b1bc 8f34 d23d 3c30 0a3d
00000100: e207 aabd ad07 093d d060 eabb 1f65 803d
00000110: 8a2c 2ebd 3f50 a13d 3c6d 4c3d 8e9b 2a3e
00000120: c7ce 9dbd 5c96 0b3e cb84 243d 6bd2 14be
00000130: 2c26 ec3c 015f e93d 84c4 6bbd b6f1 6abd
00000140: cc1b ed3d dfc8 003e 4185 093e 707b d73d
00000150: 44d8 023c fea8 fb3d 24d3 93bd 6b33 0c3d
00000160: e664 e83d 69c7 023e 2320 e13d 25e4 08be
00000170: 8201 a83d 54be 833d 7864 353d 16b8 4dbd
00000180: 627a 76bd 54ef 93bd d6e8 bb3d 6a1f cf3d
00000190: 435b b7bd 9bd8 c1bd e98f 57bd e885 33be
000001a0: 4c9a c13d 0c47 8dbc 859a adbd 028f a6bd
000001b0: 89a3 34bd b6fe c13c ff2e 5cbd 7eed 1dbd
000001c0: 728c f2bd 602d 88b7 ec75 f2bd 3e6b 94bd
000001d0: 2eb7 8dbd b8b5 acbd d06e 6b3d f4be 04be
000001e0: 2a69 2d3e 4bc5 e3bd 52c6 e03d 760f 913a
000001f0: e377 d93d 6ead 033e 607f 7c3d c4a0 69bd
00000200: 6055 00be 4010 c53b edbb 2c3d ed4c ca3d
00000210: c8f1 c2bc 7bd9 e23d fcc8 bf3d a142 f23c
00000220: 4f06 f03c f727 a33d 3f5d e23d 3f09 f23d
00000230: 8529 d33d 7f2e 1bbd 351b 15be e5ec 82bc
00000240: fe80 ba3d 1ea5 abbc 58a3 f7bd 3b42 ba3d
00000250: e608 ee3b 2f18 61bc 9c40 cc3d 4ca7 ad3d
00000260: 8bfb 863d 21d5 193d 7599 fbbd ad6f 00be
00000270: 51b5 d4bd ed5e d3bb 12f2 283e 8de3 11be
0.12032212 0.13789602 -0.120058514 0.11471996 -0.08678274 0.15593715 -0.05784486 0.15197389
0.1078272 0.13213545 -0.015890183 0.096251845 -0.13784844 0.008761207 -0.022862572 -0.019388113
0.0017710497 0.048002116 0.13201906 -0.08605701 -0.05637525 0.13126966 -0.013427903 0.020326845
-0.05553629 -0.098453045 -0.004336322 -0.07426294 -0.013371915 -0.12466941 -0.011503816 0.14359686
0.11469086 -0.015869623 0.15693675 0.15776668 0.019228632 -0.09392527 -0.08986089 -0.056405243
0.012956714 -0.07706528 -0.06897997 0.040210653 0.16395378 0.12903194 0.014733107 -0.09566258
-0.067907594 0.1243258 0.054708906 -0.05969505 0.12971488 -0.1379246 0.020217557 0.11780128
0.07837871 0.10742411 0.10064578 -0.05264748 -0.052227378 -0.021670673 0.10263931 0.033737406
-0.08302285 0.033454586 -0.007152654 0.06269287 -0.042522945 0.07876634 0.04990886 0.16660902
-0.07705455 0.13631576 0.040165704 -0.14533393 0.028826796 0.11395074 -0.05756046 -0.05735942
0.115775675 0.12576626 0.13429739 0.10521591 0.007986132 0.12288092 -0.07218006 0.034228723
0.1134737 0.12771381 0.10992458 -0.1336828 0.082034126 0.064327866 0.044285268 -0.050224386
-0.060175307 -0.072233826 0.09175269 0.10113414 -0.08952954 -0.09465142 -0.052627478 -0.1753155
0.09453258 -0.017245792 -0.08476738 -0.08132745 -0.04410127 0.023681026 -0.053755756 -0.03855657
-0.11843194 -1.6233593e-05 -0.11838898 -0.07247017 -0.069197044 -0.084330976 0.057478726 -0.12963468
0.16934648 -0.11121615 0.109753266 0.001106723 0.1061857 0.12859127 0.06164491 -0.057038084
-0.12532568 0.0060139 0.042171407 0.09877954 -0.02379693 0.11076637 0.093645066 0.029572787
0.029299883 0.07966607 0.110529415 0.1181817 0.103106536 -0.03788614 -0.1456116 -0.0159821
0.091066346 -0.020952757 -0.12091702 0.09094664 0.0072642444 -0.013738676 0.09973261 0.08479175
0.06590947 0.03755677 -0.12285129 -0.12542601 -0.10386146 -0.006450525 0.16498592 -0.1424696

weight_ih_l1 f4 [160, 80]
00000000: eb4f e1bd e074 0dbe c164 1bbe 23ba 0dbe
00000010: 8be4 1c3e 1cf6 e33c 130a 1dbe 957e abbd
00000020: dfc7 a0bd d8ba e53d 76f3 0b3e 0fe8 62bd
00000030: 9fa6 6cbd f9d1 e3bd 2070 a03d 1e02 5dbd
00000040: fc3b c53d 9f86 5e3c 83f9 e33c 0aed c3bd
00000050: 587c 983d 292f 453b 414b 62bd 30c0 eebc
00000060: 0237 733d 89ee 22be 5a01 fb3d 4cd2 a43d
00000070: c787 1d3e 0ab3 bb3c 323a debc bbd7 af3d
00000080: b2c4 4d3d 961c b33c 24d6 203e 5e06 4c3d
00000090: 4ef8 4a3d 6249 7b3d 8d2d 73bd 788d e73d
000000a0: 732c 783d 98fd d63d 4f71 0bbe ea5c d2bd
000000b0: b3b8 3b3d 5a8c ab3d 466f 13be 6b2d 40bc
000000c0: 1b84 c1bd 6eb5 bbbd fbb9 9a3d 70f2 823d
000000d0: 0a7c d2bd c4b1 59bd 84db fbbd 5057 59bc
000000e0: 3cb5 a6ba 378a 99bd dec3 24bd d1c7 043e
000000f0: 97c9 d4bd d0bf d2bd 97d8 f13c 773e c63c
00000100: 8214 033e 5bf3 ce3d e61e cf3c 9eb1 833d
00000110: ffbf 50bc f6d5 05be 2e91 0c3d 62a6 a1bd
00000120: cb2b b83c 495e 003e d747 c93b 7f16 75bd
00000130: bced e13d 0500 163e 8124 733d 4bb9 8bbd
00000140: 4f2c 313e 1444 3d3d b0cb 86bd 405f 0d3e
00000150: 1801 e23d ce17 01bd 5c2d f73d 44f3 893d
00000160: 17b3 c63d 9ef5 e6bd e67f 60bc d0f1 8ebd
00000170: a17b e6bc c879 0a3e af90 a4bc 2c7e b03d
00000180: 8416 1b3e 64c3 243e 3c07 2f3e 71ef f73d
00000190: 689d c6bd 4454 143e 1d76 573d 03a9 5c3d
000001a0: 6c13 18bd 8b44 f63d 5348 203e 6f70 e4bd
000001b0: d08b 793d 660d 37bd 8244 2dbd 3ff4 f7bd
000001c0: 2b80 45bd 759d 1c3e dafb 0d3d 9f68 263e
000001d0: a665 1fbe bd3b 2a3c 7b97 d5bd b609 543d
000001e0: 8e5c 3bbe b873 3a3e 571a 6ebb a269 f03d
000001f0: a914 0d3e 7435 123e 3d29 023e 8946 04bd
00000200: 25bd 923d f4c5 23be 7285 0c3e 8dc0 0cbe
00000210: ad0b c23d a6fd bc3d bea1 a13d 233d b1bc
00000220: 27b1 eebd ece3 f53d 861d 6539 2338 31bd
00000230: 8e2b 13be 46b9 133e 6669 e43d f1b6 1a3e
00000240: 6131 8dbd d4a3 c3bd c55c adbc 56b0 8ebd
00000250: 5b3e fd3d 1e90 fb3d 023f 87bc 1fbb a03d
00000260: e5b0 0b3e e577 c83d b1a2 3c3e f235 f73d
00000270: c737 80bd bb6d c33d 1c48 c63d 1584 3fbe
00000280: 6c85 283e a944 e13d 9b79 0dbd ffcd d43c
00000290: b7c6 2c3d 7e37 bbbd b028 22be a28b 0f3e
000002a0: 3158 2bbd 4ed7 00be d0be 55bd e164 013e
000002b0: 44f4 d2bd c663 dd3d 23b4 403e 5000 1c3d
000002c0: 7d41 e9bd 4db4 03be a566 9fbc 6334 d93d
000002d0: 21af 163d 7fac 0cbe a3c7 fe3d 2149 093e
000002e0: 0093 273d 6623 f83d 874c 1d3e 310a 373e
000002f0: c8e2 c7bd d50d 80bc f2d4 1bbe 9385 6bbd
00000300: a9a2 c4bc e7e1 7e3d 3198 e7bc 13c2 cc3d
00000310: 54c3 e4bd c3ad 6d3c af81 f3bd 45b9 84bd
00000320: d52c 9f3d 7495 a53d 26b3 7ebb ca0e cfbc
00000330: 88b8 453d 0608 86bd 6c49 5cbb f18b 0fbd
00000340: 42a0 04be 8ba1 203d c057 94bd 59ca 073d
00000350: 6796 1b3d 0faa 94bb dea2 873d 0c7d 28be
00000360: 8173 593d 9a91 3ebd a908 0fbe 04a0 4bbd
00000370: 726e 9abc 0724 673d b636 93bd 2358 be3b
00000380: 9068 2dbe ffde 1dbd 0e17 cf3d b1ee 873d
00000390: b6b3 8c3d e14e 26bd cbbe 82bd fcd3 e43d
000003a0: ae04 a13d dacd 03be 28ac ef3d 0995 9f3c
000003b0: a509 83bd a265 58bd 1e24 b13d 0f04 2fbe
000003c0: 8326 28bc add9 483c 001a eabc c877 22be
000003d0: 2245 de3c 6695 5ebd 0e65 7bbd 6f4a 973d
000003e0: 81c7 9abd cdc4 1f3e faf8 133e 9d2a e6bd
000003f0: eb21 e3bd 46c4 ba3d 7f5a 97bc 7a94 d2bd
-0.11001571 -0.13814116 -0.15175153 -0.13840537 0.15321557 0.027827315 -0.15335874 -0.08373753
-0.078506224 0.11217278 0.13667092 -0.05539709 -0.05777609 -0.111240335 0.07833886 -0.053957097
0.09630582 0.013581901 0.027828937 -0.09566696 0.07445592 0.0030087924 -0.05524755 -0.029144377
0.05937863 -0.15911306 0.12256117 0.080479234 0.15383826 0.02291252 -0.027127359 0.08586069
0.05023641 0.021864217 0.15706688 0.04981076 0.049553208 0.06134928 -0.059369612 0.1130628
0.060589265 0.10497588 -0.13617443 -0.10271628 0.04583044 0.08376379 -0.14397916 -0.0117295785
-0.09449025 -0.09165464 0.07555004 0.063938975 -0.10277565 -0.053148046 -0.12297729 -0.013265446
-0.0012718807 -0.074970655 -0.040225856 0.12966849 -0.10390013 -0.102904916 0.029522223 0.024199707
0.12800792 0.1010501 0.025283288 0.06430362 -0.012741088 -0.13069901 0.03431814 -0.07893063
0.02248182 0.12535967 0.006142597 -0.059835907 0.11031672 0.14648445 0.059360985 -0.06822451
0.17302059 0.046207502 -0.06581819 0.13805866 0.11035365 -0.031516843 0.120691985 0.06735852
0.097021274 -0.112773165 -0.013702368 -0.06979716 -0.028135123 0.13523018 -0.020088522 0.086178154
0.15145308 0.1609016 0.17092603 0.12106217 -0.096979916 0.1448527 0.052602876 0.05387212
-0.037127897 0.12024792 0.1565259 -0.111542575 0.06092435 -0.044690512 -0.042301662 -0.12107133
-0.048217934 0.1529444 0.034664012 0.16250847 -0.1556612 0.010390219 -0.10429283 0.051767074
-0.18297026 0.18208206 -0.0036331618 0.11738898 0.13777412 0.14278203 0.12711044 -0.03229383
0.07164983 -0.15993482 0.1372278 -0.13745327 0.09474883 0.09228067 0.07892178 -0.021635598
-0.11654883 0.12006363 0.0002185014 -0.043266427 -0.14372084 0.14426145 0.11152916 0.15108849
-0.06894184 -0.09552732 -0.0211624 -0.06967227 0.12365409 0.122833475 -0.016509537 0.078481905
0.13641699 0.09788493 0.18421437 0.12070836 -0.06260639 0.09542414 0.096817225 -0.18702729
0.16457146 0.10999424 -0.0345398 0.025977133 0.042181697 -0.09141444 -0.15835834 0.1401811
-0.041832153 -0.12582132 -0.052183926 0.12636138 -0.10300496 0.10810046 0.18818717 0.038086236
-0.11389444 -0.12861748 -0.019458124 0.10605695 0.03678811 -0.13737677 0.124404214 0.13406803
0.040911674 0.12116127 0.15361224 0.17874981 -0.09760052 -0.015631596 -0.15217951 -0.057500433
-0.024003344 0.062227156 -0.028270813 0.09997954 -0.111700684 0.01450676 -0.118899696 -0.0648065
0.07772223 0.080851465 -0.0038864105 -0.025275607 0.048271686 -0.06544499 -0.0033613099 -0.035045568
-0.12951759 0.03921656 -0.072432995 0.03315196 0.03798523 -0.004536874 0.06622861 -0.16453952
0.05308867 -0.046525575 -0.13968147 -0.04971315 -0.018851493 0.056430843 -0.0718817 0.0058088466
-0.16934419 -0.038542744 0.10111819 0.06637324 0.06870215 -0.04060257 -0.06384047 0.11173245
0.07862221 -0.12871495 0.11702758 0.019480245 -0.06398324 -0.0528313 0.08649467 -0.17091392
-0.010263088 0.012258929 -0.02857685 -0.15866005 0.027132574 -0.054341696 -0.06137567 0.07387244
-0.075575836 0.15602417 0.14450446 -0.112385966 -0.11090454 0.091194674 -0.01847577 -0.10282226
